data.pth (torch, 11543 bytes, 6 tensors)

l1.weight f4 [8, 139]
0	0x3ebd8d1c	0.3702172
1	0x3de3f9de	0.11131643
2	0xbe3c0a49	-0.18363298
3	0x3ffd45ef	1.9786967
4	0x3f89cfe9	1.0766574
5	0xbe53a7a2	-0.20669416
6	0x3ec365b2	0.38163525
7	0x3f647283	0.8923723
8	0x3eaca8dd	0.33722582
9	0x3f1dd623	0.6165487
10	0x3f0d72a5	0.5525306
11	0x3cfc742e	0.030817118
12	0x3f4c9c82	0.7992631
13	0x3e84cdaf	0.25938174
14	0x3f0abf72	0.5419837
15	0x3fe8d513	1.8190025
16	0x3e20ccb4	0.15703088
17	0xbefb7fde	-0.49120992
18	0x3f8cd404	1.1002202
19	0xbe92675b	-0.2859448
20	0x3f0c1acd	0.54728395
21	0x3f5aa7d6	0.8541235
22	0xbf00d0ff	-0.503189
23	0xbcbbd95e	-0.022930797
24	0xbf1b9237	-0.6076998
25	0xbf64ad09	-0.8932653
26	0xbf087ba2	-0.5331365
27	0x3f24b1bf	0.6433372
28	0x3e9d607e	0.3073768
29	0xbe740c64	-0.23832852
30	0xbf4ae7eb	-0.7926013
31	0xbecf756a	-0.40519267
32	0x3f303cec	0.6884296
33	0xbf5dccd6	-0.8664068
34	0xbed9121f	-0.42396638
35	0xbd5ffb14	-0.054682806
36	0x3f466dee	0.7751149
37	0x3f644e1a	0.89181674
38	0x3f349f7a	0.7055584
39	0x3f984505	1.1896063
40	0x3f12e62c	0.57382464
41	0x3f5f00a9	0.8711038
42	0x3f8f9487	1.1217202
43	0x3f287c7b	0.6581494
44	0x3e3beb2c	0.1835143
45	0x3f0a9443	0.5413248
46	0x3f9a52aa	1.2056477
47	0xbf686c41	-0.9079018
48	0x3ea6cc39	0.32577685
49	0x3e9b67ea	0.30352718
50	0x3e968a93	0.294026
51	0x3eaca9bf	0.33723256
52	0x3f0fd85f	0.5618953
53	0x3d45e836	0.048317157
54	0xbd83ec40	-0.064415455
55	0x3da85b86	0.08220582
56	0x3f44a75d	0.76817876
57	0xbcd26e7d	-0.02568745
58	0x3e398772	0.18118075
59	0x3e1c8167	0.15283738
60	0x3f0d4488	0.55182695
61	0x3dedc08c	0.11608991
62	0x3fa6d3de	1.3033407
63	0x3f74624b	0.95462483
64	0x3f490e44	0.7853739
65	0x3e723f4f	0.23656963
66	0x3f20e19c	0.6284425
67	0x3f6bfac0	0.9217949
68	0xbed02521	-0.40653327
69	0x3f235d47	0.63814205
70	0x3da3fab5	0.08006803
71	0xbf5ea62d	-0.86972314
72	0x3f3bedf7	0.7340998
73	0x3f85531c	1.0415988
74	0x3f103814	0.5633557
75	0x3f341ffb	0.703613
76	0x3e6125fb	0.21987145
77	0x3f1543be	0.5830649
78	0xbedcbc9d	-0.4311265
79	0x3dade6a5	0.084912576
80	0x3eb48eeb	0.35265288
81	0xbef3518c	-0.47523153
82	0xbf883ebf	-1.0644149
83	0x3f3a29a6	0.727198
84	0xbe8cfa03	-0.27534494
85	0xbf475f5e	-0.77879894
86	0x3f6bdb5c	0.9213159
87	0xbf64a3fb	-0.89312714
88	0xbf64afac	-0.89330554
89	0xbf0c7ea6	-0.5488075
90	0x3f1f2fb6	0.62182176
91	0x3f201c1b	0.62542886
92	0x3eff6ac6	0.4988615
93	0xbf5ac18e	-0.8545159
94	0x3f97932f	1.1841792
95	0xbee308c4	-0.44342625
96	0xbf627e28	-0.8847375
97	0xbf437416	-0.7634901
98	0xbe152d25	-0.14568003
99	0x3f2e17a2	0.6800481
100	0x3f6ddf8c	0.9291923
101	0xbd484d81	-0.04890204
102	0xbf17f8ec	-0.593642
103	0x3e925dfa	0.28587323
104	0xbf40cb76	-0.75310457
105	0x3f593531	0.8484679
106	0x3d008110	0.031373084
107	0x3fa97712	1.3239462
108	0x3e964058	0.29345965
109	0x3df74002	0.120727554
110	0x3f3d0790	0.73839664
111	0x3da8197f	0.08207988
112	0x3e8d801f	0.2763681
113	0x3ec2b08a	0.38025314
114	0x3e2edaf6	0.17075714
115	0x3e3d76bb	0.18502323
116	0x3e0540fd	0.13013072
117	0x3f180897	0.5938811
118	0x3c782216	0.0151448455
119	0xbf484380	-0.78227997
120	0xbf06b97f	-0.52626795
121	0xbeaa063b	-0.33207878
122	0x3e891b95	0.26778856
123	0x3f7107ff	0.94152826
124	0xbe402d91	-0.18767382
125	0xbe22b280	-0.15888405
126	0x3f124f70	0.5715246
127	0x3f139557	0.5764975
128	0xbe76bdda	-0.2409586
129	0xbeebe3ea	-0.46072322
130	0xbe8fe8fc	-0.2810744
131	0x3e684f29	0.22686447
132	0xbf00ef0f	-0.50364774
133	0x3f3aff3b	0.730457
134	0xbe9171ed	-0.2840723
135	0x3ec2636f	0.37966487
136	0x3f230b16	0.6368879
137	0xbf9088cb	-1.1291746
138	0x3f1f4fd5	0.6223119
139	0x3f62932d	0.8850582
140	0x3f50a770	0.8150549
141	0xbefdf94b	-0.49604258
142	0x3f3d43bd	0.73931485
143	0x3f82aaea	1.0208409
144	0xbed1d217	-0.40980598
145	0xbf2b5eb5	-0.66941386
146	0xbf5f6818	-0.8726821
147	0xbeeb17cd	-0.45916596
148	0xbefebb4c	-0.4975227
149	0xbe9f1d21	-0.3107691
150	0x3f232ac8	0.63737154
151	0xbeb3d83e	-0.35125917
152	0x3ee59359	0.4483898
153	0xbf08e713	-0.5347759
154	0x3c3b2bdc	0.011424031
155	0x3f5c26b2	0.85996544
156	0xbf09a39b	-0.5376527
157	0xbf401a95	-0.7504056
158	0xbf2265e4	-0.6343672
159	0xbed01f9e	-0.40649122
160	0x3d2b1675	0.041769464
161	0xbf2d5222	-0.6770345
162	0x3e1a80b1	0.15088154
163	0x3dbd3c56	0.09240024
164	0x3f63661b	0.88827676
165	0x3eb07e9c	0.34471595
166	0xbef45cbc	-0.47727
167	0x3d8e10dd	0.0693681
168	0xbf1ec747	-0.62022823
169	0xbdfe2869	-0.124100514
170	0x3e1366a9	0.1439463
171	0xbdfef4d6	-0.124490425
172	0xbdca26f7	-0.09870713
173	0x3ee89b2e	0.45430893
174	0x3e41e84e	0.18936273
175	0x3ea03e7a	0.31297666
176	0x3e9ad8e7	0.30243608
177	0xbe5ec525	-0.21754892
178	0xbf5bcc90	-0.8585901
179	0xbd50cd9d	-0.050977338
180	0x3f4290b5	0.76002055
181	0x3e988955	0.29792276
182	0x3ef8aec2	0.4857083
183	0x3ee85ab7	0.4538171
184	0xbecbe59b	-0.39823613
185	0xbdf35c14	-0.11882797
186	0x3ddc3d08	0.10753828
187	0x3ee05606	0.4381563
188	0x3f4fd1a5	0.8117927
189	0x3eb0bbca	0.34518272
190	0x3ed61ce1	0.41818908
191	0xbd93bce1	-0.0721376
192	0xbdf6d600	-0.12052536
193	0x3ee566bd	0.44804946
194	0x3e13d665	0.14437254
195	0xbc423953	-0.0118544875
196	0x3dd09805	0.101852454
197	0xbf1becda	-0.6090828
198	0xbf1f7d17	-0.62300247
199	0x3f5404d7	0.82819885
200	0x3eb2e15a	0.34937555
201	0xbf484520	-0.78230476
202	0x3f825c94	1.0184503
203	0xbe6451a9	-0.22296776
204	0xbe83e613	-0.2576147
205	0xbe1a266f	-0.15053724
206	0xbe2c20e7	-0.16809426
207	0x3ebc29e7	0.3675072
208	0xbd403a7b	-0.04693077
209	0x3f068e9d	0.5256136
210	0xbd8fbdf5	-0.07018653
211	0x3e8a01bc	0.26954448
212	0x3e93884c	0.28814924
213	0x3eb2626a	0.3484071
214	0x3e95d558	0.2926433
215	0xbed381ad	-0.41309872
216	0xbe498c07	-0.19682322
217	0x3f17e4d8	0.5933356
218	0xbf5f0f2e	-0.8713254
219	0xbf2a6259	-0.66556317
220	0x3f0868bb	0.53284806
221	0x3f0be9da	0.54653704
222	0xbe40b353	-0.18818407
223	0x3ecc48ab	0.3989919
224	0x3f02c1dd	0.5107706
225	0x3fbb37a8	1.462636
226	0x3f3fb3a0	0.7488346
227	0x3f41291f	0.7545337
228	0x3e98b5ef	0.29826304
229	0xbe56f7bb	-0.20992939
230	0xbf1455e6	-0.5794357
231	0x3bad4d6d	0.005288771
232	0xbdc2f429	-0.09519226
233	0xbf3aa24c	-0.72903895
234	0x3f196723	0.59923
235	0x3f721123	0.945574
236	0xbead2203	-0.3381501
237	0xbf098790	-0.53722477
238	0xbf841c5e	-1.0321157
239	0x3e3e5362	0.18586496
240	0xbf0896ad	-0.53354913
241	0x3ea5e34a	0.3239997
242	0x3e8250b4	0.25452197
243	0xbe88f1f4	-0.26747096
244	0x3f31f69d	0.69516927
245	0x3e38043f	0.1797037
246	0xbe46c969	-0.1941277
247	0x3e5e791c	0.21725887
248	0x3f43c868	0.7647767
249	0x3ec4d016	0.38440007
250	0x3fd09a9b	1.6297182
251	0x3f8749b6	1.056937
252	0xbf45a3bb	-0.7720296
253	0x3ef5b681	0.47990802
254	0x3f3004e2	0.6875745
255	0x3f4f5783	0.8099291

l1.bias f4 [8]
0	0x3f64a897	0.8931975
1	0x3fa26f84	1.2690282
2	0x3fb003bd	1.3751141
3	0x3fb39115	1.402865
4	0x3f90511d	1.1274754
5	0x3fa9d460	1.3267937
6	0x3fd2c4e4	1.6466336
7	0x3f39a386	0.7251514

l2.weight f4 [8, 8]
0	0x3f969a4b	1.1765836
1	0xbf3d50e5	-0.7395156
2	0x3e2f6ef7	0.17132173
3	0x3f6cdf2f	0.9252805
4	0x3f618e9f	0.8810825
5	0x40167958	2.3511562
6	0xbf3bf277	-0.73416847
7	0x3fc52d2d	1.5404412
8	0x3faa14d2	1.3287604
9	0xbf9c99d5	-1.2234446
10	0xbfd8dd04	-1.6942449
11	0x3ef5727f	0.47938916
12	0x3fce37d2	1.6110785
13	0x3f930479	1.148574
14	0x3fcab4d7	1.5836438
15	0x3fde1b96	1.7352169
16	0xbfa38221	-1.2774087
17	0x400501c7	2.0782335
18	0x40123df9	2.2850325
19	0x4016450b	2.347964
20	0xbd57e239	-0.052705977
21	0x3fa25e31	1.2684995
22	0x3ec179d6	0.37788266
23	0x3fcf11e3	1.6177334
24	0x3f9bd148	1.2173243
25	0xbcce33a1	-0.025171103
26	0x3f2abcef	0.6669454
27	0xbf09060a	-0.5352484
28	0xbfc4a15d	-1.5361744
29	0x3fbc7408	1.472291
30	0x402294d5	2.540334
31	0xbf7f55ed	-0.9974049
32	0x3f6f6f36	0.9352907
33	0x3fa0caed	1.2561928
34	0xbec2db87	-0.3805811
35	0x3f4fbe91	0.81150156
36	0x400e57b9	2.2241042
37	0xbf38044d	-0.7188156
38	0x3f6efae6	0.9335159
39	0xbf9db08c	-1.2319503
40	0x3f93b27b	1.1538843
41	0x4001f3dd	2.0305092
42	0x3f73f620	0.9529743
43	0xbf5a97de	-0.8538798
44	0x3fb5a736	1.4191654
45	0xbf648b14	-0.89274716
46	0xbe268c8b	-0.1626455
47	0x3fa57355	1.2925822
48	0x3f8036bc	1.0016704
49	0x3efcb1c0	0.49354362
50	0x3fab78d5	1.339625
51	0xbfc3a4c6	-1.528466
52	0x3f09b23e	0.537876
53	0xbfa42a33	-1.2825378
54	0x3fa0747c	1.2535548
55	0xbf492834	-0.7857697
56	0xbf51ac37	-0.81903404
57	0x3f75e292	0.96048844
58	0x3ee3f88e	0.4452557
59	0x4019a34c	2.4005919
60	0x3fd675ed	1.6754738
61	0x4016c393	2.355687
62	0x3f01fd12	0.5077678
63	0xbfb8176c	-1.4382148

l2.bias f4 [8]
0	0x3f0f6bc3	0.56023806
1	0x3e405b03	0.18784718
2	0x3fade6a5	1.3586012
3	0x3f4665b7	0.77498955
4	0xbc5a02bb	-0.013306315
5	0xbfab6fdc	-1.3393512
6	0x4003b49a	2.057898
7	0xbd3658b8	-0.044518203

l3.weight f4 [64, 8]
0	0xbfafde0f	-1.3739642
1	0xbfe62dff	-1.7982787
2	0x3ea39b6a	0.3195451
3	0xbf5438ec	-0.82899356
4	0x3f265be4	0.64983964
5	0xbf5d7e7e	-0.86521137
6	0xbf65aead	-0.8971966
7	0x3f1b0210	0.6055002
8	0xc05205bf	-3.2816007
9	0xc03711fe	-2.8604732
10	0x3d0a7553	0.033803295
11	0x3f27623b	0.6538426
12	0x3e84be34	0.25926363
13	0xbf9642d0	-1.173914
14	0x3f7c9ab2	0.98673546
15	0xbfa8af99	-1.3178588
16	0x3e699751	0.22811629
17	0x3f05d5a8	0.5227914
18	0xbe9856b5	-0.29753652
19	0xc0253985	-2.5816357
20	0xbe30e99e	-0.17276618
21	0xbf8d6744	-1.1047139
22	0xc01ca707	-2.4476945
23	0x3e8a3494	0.2699324
24	0x3e98cc5d	0.29843417
25	0xc02a4799	-2.66062
26	0x3eccd1e7	0.40003893
27	0xbfce1863	-1.6101192
28	0xbdf62d24	-0.12020329
29	0xbf4aa9d0	-0.79165363
30	0xc018df3d	-2.3886254
31	0x3f16bf96	0.58886087
32	0xbf7b58b0	-0.981822
33	0xbf864a45	-1.0491415
34	0xbf114d84	-0.56758904
35	0xbe41e101	-0.18933488
36	0x3f008e73	0.5021736
37	0xbd8030ae	-0.06259285
38	0xbecdfbd1	-0.40231183
39	0x3da7807f	0.081788056
40	0xbf3d5cd2	-0.7396976
41	0xbea66474	-0.32498515
42	0xbe440ba6	-0.19145069
43	0x3edeb4b9	0.43497255
44	0x3ea30869	0.31842354
45	0xc04c6a74	-3.1939974
46	0xbfa523a3	-1.29015
47	0x3e447ccf	0.19188236
48	0xbd42fdf6	-0.047605477
49	0xbf1174cf	-0.5681886
50	0x3e1ce5f8	0.15322101
51	0xbf0f5fec	-0.5600574
52	0x3d183a6b	0.037165087
53	0xbf37b474	-0.71759725
54	0xbff0361e	-1.8766515
55	0x3d95ca45	0.073139705
56	0xbe90359c	-0.281659
57	0xbecfa483	-0.405552
58	0x3f2c5cb5	0.6732896
59	0xc07cabfd	-3.9479973
60	0xbe41a008	-0.18908703
61	0xbf2c0ad7	-0.6720404
62	0xbfe2c7c6	-1.7717216
63	0x3e1fb2eb	0.15595596
64	0xbf327420	-0.6970844
65	0xbf34c94c	-0.70619655
66	0x3e4a839e	0.1977677
67	0x3e7f2be7	0.24919091
68	0xbf525f1c	-0.82176375
69	0xbebab2fc	-0.3646468
70	0xbf20ac58	-0.62762976
71	0xbf1d142d	-0.6135891
72	0x3d3bea90	0.045877993
73	0x3cbe044f	0.023195414
74	0xbf01ca6b	-0.5069949
75	0x3e02d2f1	0.1277578
76	0xbeeb9c8e	-0.4601788
77	0xbee579e5	-0.4481956
78	0xc004e58e	-2.076511
79	0xbf5518f2	-0.8324119
80	0xbe9edca0	-0.310277
81	0x3e79a204	0.2437821
82	0xc03cb251	-2.9483836
83	0x3e972f89	0.29528454
84	0xbe095124	-0.13409859
85	0xbf5413a6	-0.8284248
86	0x3e926ffe	0.28601068
87	0xbfe02274	-1.7510514
88	0xbf445e6b	-0.7670657
89	0x3d2af9a3	0.04174198
90	0xc0371a57	-2.8609827
91	0x3e64c619	0.22341193
92	0x3efde435	0.4958817
93	0x3dda3a91	0.10655702
94	0x3d7f34f4	0.06230636
95	0xc066fa5f	-3.6090314
96	0xbf58cfe3	-0.8469221
97	0x3e8fef80	0.28112411
98	0xbfe37a8d	-1.7771775
99	0x3d52b8f2	0.05144591
100	0xbe2229da	-0.15836278
101	0xbf0e6551	-0.55623347
102	0xbe939c24	-0.28830063
103	0x3cd90cd0	0.026495367
104	0xbedd319b	-0.43201908
105	0xbd893a8f	-0.06700622
106	0xc05099a7	-3.2593782
107	0xbdb2c984	-0.08729842
108	0x3ec0be2e	0.37645096
109	0x3e32eead	0.1747386
110	0xbe85d0b9	-0.26135805
111	0xbf664e18	-0.8996291
112	0xbfcc148c	-1.594377
113	0xc0407e9a	-3.0077271
114	0x3ecbc530	0.3979888
115	0x3f15dbed	0.58538705
116	0xbf986f88	-1.1909037
117	0xbfe89a4c	-1.8172088
118	0x3ef0f8ad	0.47064725
119	0xbeabc2de	-0.3354711
120	0xbf0fd238	-0.56180143
121	0xbfe79f6b	-1.8095526
122	0xbe9a4e33	-0.30137786
123	0xbe3729c4	-0.17887026
124	0xbcfc47e7	-0.030796004
125	0xbf305a07	-0.6888737
126	0x3f5c0700	0.8594818
127	0xbf2e75a3	-0.6814825
128	0xbee35393	-0.443997
129	0xbfda37cd	-1.7048279
130	0x3dab0a42	0.08351566
131	0xbf9e5850	-1.2370701
132	0xbd4d085a	-0.050056793
133	0x3eb81251	0.35951474
134	0xbc15af43	-0.009136024
135	0xbff7a5c0	-1.9347458
136	0xbeb373c7	-0.3504927
137	0xbe3ccf1c	-0.18438381
138	0xbbd4abd1	-0.0064902087
139	0xc050dc33	-3.26344
140	0x3e2b25b1	0.16713597
141	0x3cdcd9df	0.026959358
142	0x3e29a21c	0.16565746
143	0xc01b94c1	-2.4309542
144	0x3e14b0a4	0.14520508
145	0xbd9f3c43	-0.07775166
146	0xbe70ca7f	-0.23514746
147	0xbf841b2b	-1.0320791
148	0xbf1c6fb2	-0.61107934
149	0xbd1f6482	-0.03891421
150	0xbfa197ef	-1.2624491
151	0xbf027efe	-0.50975025
152	0x3d837dc6	0.06420474
153	0x3e883a46	0.2660696
154	0xbf5c71e6	-0.86111295
155	0xc00ab450	-2.1672554
156	0x3d2b522f	0.041826423
157	0x3dcf49ed	0.10121522
158	0xbf2d016f	-0.6758031
159	0xbf7162cf	-0.94291395
160	0xbfc90bb4	-1.5706697
161	0xbf26be4e	-0.6513413
162	0xbe76e2f7	-0.24110018
163	0x3f38eb6b	0.7223422
164	0xbe6fa43a	-0.23402491
165	0xbf89035e	-1.0704153
166	0xbd50d4c4	-0.05098416
167	0xbf280b48	-0.65642214
168	0xc029d896	-2.6538444
169	0xbedcc14d	-0.43116227
170	0xbf87a286	-1.0596473
171	0x3f117aa7	0.5682778
172	0x3dd3e684	0.10346702
173	0x3cd21a93	0.025647437
174	0x3f186652	0.5953113
175	0xc02000cb	-2.5000484
176	0xbf058702	-0.5215913
177	0xbdf5e72e	-0.12006985
178	0x3da7430b	0.08167084
179	0x3eb97e10	0.3622899
180	0xc0130896	-2.297399
181	0xc0019157	-2.0244958
182	0x3eec0fa9	0.46105698
183	0xbfe078a8	-1.7536821
184	0xbecadae2	-0.3962012
185	0x3e928695	0.28618303
186	0x3d995243	0.07486393
187	0xbf23f05a	-0.6403862
188	0xbea0c6f6	-0.31401795
189	0xbf7bf0e6	-0.98414457
190	0x3e922d4b	0.2855018
191	0xc034f9f9	-2.8277571
192	0x3f026c45	0.50946456
193	0xbda3bc07	-0.07994848
194	0x3ef798e6	0.4835884
195	0xc03cad57	-2.9480798
196	0xbfc18b55	-1.5120646
197	0xc0184b3f	-2.3795927
198	0xbfb3d88c	-1.405046
199	0xbd9ca014	-0.0764772
200	0x3ea342cb	0.31886896
201	0x3ec27b65	0.37984768
202	0x3ea98bae	0.3311438
203	0xc005610c	-2.0840483
204	0xbf51fb95	-0.8202451
205	0xbf4a69d2	-0.7906772
206	0xbfe99e19	-1.8251373
207	0xbfec93d2	-1.8482611
208	0xbf03b552	-0.5144855
209	0x3db2bd41	0.087275036
210	0xbf871cfc	-1.055572
211	0x3f003002	0.50073254
212	0xbf0c8431	-0.5488921
213	0xbefda5e3	-0.49540624
214	0xbf3a1d8a	-0.72701323
215	0xbf43dc7c	-0.7650831
216	0xbe42c542	-0.1902056
217	0x3e126e31	0.14299847
218	0xbfc16a42	-1.5110552
219	0x3f1076c5	0.5643123
220	0xbe7d5599	-0.24739684
221	0xbed5e746	-0.4177801
222	0xbf2411ab	-0.6408946
223	0xc03fb616	-2.9954886
224	0xbfafaa0d	-1.372377
225	0xc04aaa5b	-3.1666477
226	0x3e507b0c	0.20359439
227	0x3dcb53e0	0.09928107
228	0xbed570fb	-0.4168776
229	0xbe89f968	-0.26948094
230	0xbed5b4c5	-0.4173948
231	0x3e60c09b	0.21948473
232	0xbfcd0e2e	-1.6019952
233	0xc0490e2a	-3.1414895
234	0x3eb21805	0.3478395
235	0x3ea6fef5	0.32616392
236	0xbe517564	-0.20454937
237	0x3d2b1706	0.041770004
238	0xbe710e4d	-0.23540612
239	0xbfce17d9	-1.6101028
240	0xbded3d26	-0.11583929
241	0x3ead23a7	0.33816263
242	0xbf5e148b	-0.86750096
243	0x3e9a6567	0.3015549
244	0xbf7d316a	-0.98903525
245	0xbe1ea9ee	-0.1549451
246	0xbfb6c173	-1.4277786
247	0xc020e69b	-2.514075
248	0xbf8299d3	-1.0203193
249	0xbf49f40b	-0.78888005
250	0xbda159a9	-0.078784294
251	0xc0158c9e	-2.3367076
252	0x3d9888d8	0.07447976
253	0x3f0c09e9	0.5470262
254	0xbeb38952	-0.35065705
255	0xbf07cc88	-0.53046465

l3.bias f4 [64]
0	0x3e2ffafd	0.17185588
1	0x3ef1abfe	0.47201532
2	0x3e610825	0.21975763
3	0x3eb65bc6	0.35616893
4	0xbee5d150	-0.44886255
5	0xbdbe56d8	-0.09293908
6	0xbeb0af3e	-0.345087
7	0x3e4b60f4	0.19861203
8	0xbee300e5	-0.4433662
9	0x3e0b7013	0.13616972
10	0xbd3cda62	-0.046106704
11	0xbe710f29	-0.2354094
12	0x3d791a89	0.06081632
13	0xbefb624f	-0.4909844
14	0x3e07ffed	0.13281222
15	0x3ea37e2a	0.31932193
16	0x3e00b91c	0.12570614
17	0x3e422be1	0.18962051
18	0xbcb17cc8	-0.021665946
19	0xbef021b4	-0.46900713
20	0xbe98ecdb	-0.29868206
21	0xbdb313ea	-0.08744033
22	0x3e0ead87	0.13933383
23	0x3e9da631	0.30790856
24	0x3e88ea45	0.26741233
25	0x3eecb1c4	0.46229374
26	0xbb8046ed	-0.003914705
27	0xbe23b877	-0.15988337
28	0x3dd934b0	0.106057525
29	0xbd044a3a	-0.03229735
30	0xbd3221c4	-0.043489233
31	0xbe9d2808	-0.30694604
32	0xbedb43a4	-0.42825043
33	0xbed1b2f9	-0.40956858
34	0xbf0ad89d	-0.54236776
35	0xbf05a5a1	-0.52205855
36	0x3ec8e4e2	0.39237124
37	0x3eeb175d	0.45916262
38	0xbdb39b64	-0.08769873
39	0xbd3997a2	-0.045310624
40	0x3e7b7012	0.2455447
41	0x3ec7eff8	0.3905027
42	0xbec126ad	-0.3772482
43	0xbe22a295	-0.15882333
44	0xbe2d1a72	-0.1690462
45	0xbdb4316c	-0.08798489
46	0x3d19835b	0.037478786
47	0x3e99a128	0.30005765
48	0xbebf217c	-0.37330234
49	0xbec694ba	-0.38785344
50	0xbf0e2475	-0.5552438
51	0xbd8fc041	-0.070190914
52	0x3cce8736	0.025210958
53	0xbc2e762e	-0.010648293
54	0x3eeda83a	0.4641741
55	0x3f1bc18a	0.6084219
56	0x3d406b98	0.04697761
57	0x3eaefd35	0.34177557
58	0xbee634c8	-0.44962144
59	0xbda5fece	-0.08105241
60	0xbf13f091	-0.5778895
61	0xbe9cfd94	-0.30662215
62	0x3cf53db5	0.02993665
63	0x3e29253b	0.16518109
